m5_speech_commands.pth (torch, 118635 bytes, 26 tensors)

conv1.weight f4 [32, 1, 80]
0	0x3e2b44c9	0.16725458
1	0xbd430218	-0.04760942
2	0xbe881200	-0.26576233
3	0xbe5d6aba	-0.21622744
4	0xbe861b21	-0.26192573
5	0xbe8fdf82	-0.2810021
6	0xbe458a85	-0.19291122
7	0xbe519ddd	-0.20470376
8	0x3d5bdc16	0.053676687
9	0x3e8a9b15	0.27071443
10	0x3e9119c8	0.28339982
11	0x3e857339	0.2606447
12	0x3ead1b82	0.3381005
13	0x3e7fc8a9	0.2497889
14	0x3d8c0f4d	0.06838856
15	0xbd8639af	-0.06553971
16	0xbe39789d	-0.18112417
17	0xbe8f9a25	-0.2804729
18	0xbed2e92b	-0.41193518
19	0xbefaf5df	-0.4901571
20	0xbed80ff9	-0.42199686
21	0xbe82c2c9	-0.25539234
22	0xbdfb1a64	-0.12260893
23	0x3dc8ac0e	0.09798442
24	0x3e8ec111	0.27881673
25	0x3edf047c	0.4355811
26	0x3f11b75a	0.569204
27	0x3f192ee9	0.59837204
28	0x3ea7f0c3	0.32800874
29	0x3d8d88c9	0.06910855
30	0xbde3ea5b	-0.11128684
31	0xbe84725e	-0.25868505
32	0xbecb717a	-0.39735013
33	0xbf0d9f26	-0.55320966
34	0xbf1c42cd	-0.6103943
35	0xbec600c0	-0.38672447
36	0xbe41505c	-0.18878311
37	0xbde6c872	-0.11268701
38	0x3dba29c3	0.09089997
39	0x3ea1fc26	0.31637686
40	0x3ef83ac7	0.48482344
41	0x3f134b24	0.5753653
42	0x3ee87ce6	0.4540779
43	0x3ec63628	0.38713193
44	0x3e85a7d4	0.26104605
45	0x3cb52f1a	0.022117186
46	0xbe50715f	-0.20355748
47	0xbe9525dd	-0.2913045
48	0xbec7e485	-0.39041534
49	0xbf07993b	-0.52968186
50	0xbee5d0f5	-0.44885984
51	0xbebe24b3	-0.37137374
52	0xbe2f87aa	-0.17141595
53	0x3afb9b6b	0.0019196098
54	0x3e622d84	0.22087675
55	0x3f02af32	0.51048577
56	0x3f16097a	0.5860821
57	0x3ee97f86	0.45605105
58	0x3efe8efc	0.49718463
59	0x3ed79b03	0.42110452
60	0xbc5f0ba8	-0.013613619
61	0xbe95ca11	-0.29255727
62	0xbea91db7	-0.33030483
63	0xbf0480b0	-0.5175886
64	0xbf1a6f71	-0.60326296
65	0xbef60ca7	-0.48056528
66	0xbeafbe60	-0.34324932
67	0xbde47ad9	-0.11156244
68	0x3e8361db	0.25660595
69	0x3e9db25c	0.3080014
70	0x3ee7f152	0.453013
71	0x3ed12090	0.40845156
72	0x3e87dfb8	0.2653787
73	0x3ea46c03	0.32113656
74	0x3e0f762b	0.14009921
75	0xbd8ed023	-0.06973293
76	0xbe110e40	-0.14165592
77	0xbe1c14ee	-0.15242359
78	0xbe9c0924	-0.30475724
79	0xbea39b85	-0.3195459
80	0xbde1ed40	-0.1103158
81	0x3e9a6b09	0.30159786
82	0xbe860d2e	-0.2618193
83	0x3e43a340	0.19105244
84	0xbe423ca9	-0.18968453
85	0x3dc2a7e4	0.09504679
86	0x3edccfc2	0.43127257
87	0xbf2d72fe	-0.6775359
88	0x3f14e257	0.5815787
89	0xbe9083b3	-0.2822548
90	0xbd505173	-0.050858926
91	0x3c213b78	0.009840839
92	0x3ef1b3f8	0.47207618
93	0xbee44d76	-0.44590348
94	0x3daf05eb	0.08546051
95	0xbc662c54	-0.014048655
96	0x3e9ebb47	0.31002256
97	0xbef2296b	-0.47297224
98	0x3ddc02cf	0.10742723
99	0x3f452f3c	0.770252
100	0xbf7788bd	-0.9669302
101	0xbdc10d88	-0.09426409
102	0x3ecfb0d3	0.40564594
103	0x3eef6948	0.4676001
104	0xbf7d17f0	-0.9886465
105	0x3eb9496c	0.3618883
106	0x3e447d2b	0.19188373
107	0xbe0d7429	-0.13813843
108	0xbedb5b45	-0.4284307
109	0x3f02bdc0	0.51070786
110	0x3d0db84e	0.034599595
111	0x3dc6bdd8	0.097041786
112	0xbf80c6ac	-1.006063
113	0x3f949095	1.1606623
114	0x3e4e3ee0	0.20141172
115	0xbf9a30b7	-1.2046117
116	0x3f3bd96f	0.7337865
117	0x3e7dd13a	0.24786845
118	0xbf4440f1	-0.7666159
119	0x3eeda3c4	0.46414006
120	0xbe720be4	-0.23637348
121	0x3e8d5e36	0.2761094
122	0x3e89d8cd	0.26923218
123	0xbefe25cb	-0.4963821
124	0xbf03ed59	-0.5153404
125	0x3f73bfa4	0.95214295
126	0xbda8907b	-0.082306825
127	0xbee38767	-0.4443924
128	0xbc5889fd	-0.013216493
129	0x3e235f22	0.15954259
130	0x3dd6f16e	0.10495268
131	0x3e0be235	0.1366051
132	0xbeba9eff	-0.3644943
133	0xbea4c4eb	-0.32181486
134	0x3f3ee4a5	0.74567634
135	0xbf0c3138	-0.547626
136	0x3ed0404e	0.4067406
137	0xbed85dcb	-0.42259058
138	0x3daf47ff	0.08558654
139	0xbe13ff4e	-0.1445286
140	0x3f7b7188	0.9822011
141	0xbf8e32be	-1.1109235
142	0x3cb6e688	0.022326723
143	0x3e1de08a	0.15417686
144	0x3f6c3b34	0.92277837
145	0xbf772b64	-0.96550584
146	0x3d6066dd	0.054785598
147	0x3cd9f957	0.026608152
148	0x3f003f49	0.50096565
149	0xbdaca6ec	-0.08430275
150	0xbf27a6be	-0.65488803
151	0x3e9f6738	0.31133437
152	0x3ed14e7f	0.408802
153	0xbe637001	-0.22210695
154	0xbf0c6c6d	-0.54852945
155	0x3f52b9bf	0.82314676
156	0xbed2025c	-0.41017425
157	0x3d9972dd	0.074926116
158	0xbdcae8dc	-0.09907696
159	0x3d9a50ad	0.07534919
160	0x3d8150fd	0.063142754
161	0x3dd26167	0.10272484
162	0xbd2bca5a	-0.041941024
163	0xbe2236d3	-0.15841226
164	0xbe1f65dd	-0.15566202
165	0xbd073724	-0.03301157
166	0x3e9b38f0	0.30316877
167	0x3e90b5fa	0.28263837
168	0x3d8fe36f	0.070258014
169	0xbe6337f1	-0.22189309
170	0xbe7f4d47	-0.24931823
171	0xbd733fc0	-0.05938697
172	0x3e1ac2ac	0.15113324
173	0x3e029248	0.12751114
174	0x3d683e7a	0.056700207
175	0xbd44d549	-0.048054967
176	0xbe277a08	-0.16355145
177	0xbe257837	-0.1615914
178	0x3d8e9d89	0.06963641
179	0x3ea3c08e	0.31982845
180	0x3e6c4e8c	0.23076838
181	0x3d0f1bc4	0.03493859
182	0xbe68cf4d	-0.22735329
183	0xbee2f71a	-0.4432915
184	0xbea4a69a	-0.32158357
185	0x3e50589a	0.20346299
186	0x3f2b0492	0.6680385
187	0x3f262a26	0.64908063
188	0x3e0f652f	0.14003442
189	0xbef1ac2a	-0.47201663
190	0xbf4c4eba	-0.7980763
191	0xbf03ec5e	-0.5153254
192	0x3e24c543	0.16090874
193	0x3f4f1da4	0.80904603
194	0x3f6f48e6	0.9347061
195	0x3e7b5625	0.2454458
196	0xbf16a886	-0.58850896
197	0xbf788196	-0.9707273
198	0xbf1a48fe	-0.6026763
199	0x3d6d5007	0.05793765
200	0x3f4dc215	0.8037427
201	0x3f6a747b	0.91583985
202	0x3f000cee	0.5001973
203	0xbed10ddc	-0.40830886
204	0xbf6d786f	-0.9276189
205	0xbf5d97cd	-0.86559755
206	0xbdbe32c9	-0.0928703
207	0x3f0aeb95	0.5426572
208	0x3f61c268	0.88187265
209	0x3f1012b8	0.5627856
210	0xbd08f279	-0.033434365
211	0xbf1fdead	-0.6244915
212	0xbf2815b2	-0.65658104
213	0xbeb2b8c5	-0.34906593
214	0x3e22c3ab	0.15894954
215	0x3f11909f	0.568613
216	0x3f1cdc6d	0.61273843
217	0x3ea38e19	0.3194435
218	0xbe89e8a9	-0.26935318
219	0xbf31ec5b	-0.69501275
220	0xbf11a9a6	-0.5689949
221	0xbe2d5140	-0.16925526
222	0x3e994947	0.2993872
223	0x3f157f96	0.58397806
224	0x3eeac300	0.45851898
225	0x3d515193	0.051103186
226	0xbec99654	-0.39372504
227	0xbeece3a1	-0.46267417
228	0xbea78fda	-0.32726938
229	0x3c167a1d	0.0091843875
230	0x3e1e2509	0.15443815
231	0x3ea25970	0.3170886
232	0x3e8f1fbb	0.27953896
233	0x3cf0c09d	0.02938872
234	0xbe7e2b7d	-0.24821277
235	0xbea1d322	-0.31606394
236	0xbde1df1c	-0.11028883
237	0x3e4681de	0.19385478
238	0x3e3fde75	0.18737204
239	0x3cab4ffe	0.020912167
240	0xbdc6d51e	-0.09708618
241	0x3e234f0e	0.15948126
242	0x3e81bc9b	0.25339207
243	0x3e4f5270	0.20246291
244	0xbde2ead4	-0.11079946
245	0xbebc72d5	-0.3680636
246	0xbeb73819	-0.35784987
247	0xbec71803	-0.38885507
248	0xbe9300ee	-0.28711647
249	0xbe0e0ce2	-0.13872102
250	0x3e678b50	0.22611737
251	0x3ee9b61b	0.45646748
252	0x3ef8f610	0.4862523
253	0x3ef03c6b	0.46921095
254	0x3eb1edc1	0.34751704
255	0x3d479206	0.048723243

conv1.bias f4 [32]
0	0x3ae3eb22	0.0017388801
1	0xbb9e0b56	-0.0048231287
2	0xba8c22e5	-0.0010691552
3	0x3a9dff53	0.0012054242
4	0xb9c1b93b	-0.00036949836
5	0x38d4d790	0.000101490994
6	0xb90a627a	-0.00013197391
7	0x33ae19b0	8.107179e-08
8	0x38506ed8	4.9694296e-05
9	0xba1e85e1	-0.0006047171
10	0x390a573d	0.00013193204
11	0xbaf53eff	-0.0018710791
12	0xb9bed5f0	-0.0003639902
13	0x3a897a1f	0.0010488665
14	0x3a7cc0b1	0.00096417504
15	0x39a8494a	0.00032098062
16	0x3937d9bb	0.00017533351
17	0x3a59378e	0.00082861714
18	0xbaaba500	-0.0013095438
19	0xb9218ba8	-0.00015406183
20	0xbab37d31	-0.0013693926
21	0xbb218a18	-0.002464896
22	0xba4c01a9	-0.000778223
23	0x3a0a0aae	0.00052658736
24	0xb932e234	-0.0001705967
25	0xba2a200d	-0.0006489761
26	0x3a4a56e5	0.0007718637
27	0x3a308913	0.0006734293
28	0xb7e7f591	-2.7651697e-05
29	0x3a0f2b81	0.00054614997
30	0xb8895b7d	-6.54971e-05
31	0xba69c500	-0.00089176

bn1.weight f4 [32]
0	0x3f7b275b	0.98106927
1	0x3ff1a701	1.887909
2	0x3fa2cfcb	1.2719663
3	0x3f4f19d5	0.8089879
4	0x3f540d5c	0.82832885
5	0x3ee3b2a0	0.44472218
6	0x3ec2d66d	0.3805422
7	0x3f1b5a11	0.60684305
8	0x3ec42807	0.38311788
9	0x3f853ece	1.0409791
10	0x3e963098	0.2933395
11	0x3f85a0ba	1.0439675
12	0x3f625a5a	0.88419116
13	0x3f72c8a9	0.94837433
14	0x3ff34396	1.9005
15	0x3e98533d	0.29751006
16	0x3ec8ce30	0.3921981
17	0x3f6dc6fa	0.9288174
18	0x3f85891d	1.0432469
19	0x3f8aeaf1	1.0852948
20	0x3f0b1530	0.54329205
21	0x3fbdd161	1.4829522
22	0x3f44ee23	0.7692587
23	0x3ea2c706	0.31792468
24	0x3f5411cb	0.8283965
25	0x3f346173	0.70461196
26	0x3f833ef8	1.0253592
27	0x3f8ba3b3	1.0909332
28	0x3ee8bd78	0.45457053
29	0x3f194517	0.5987105
30	0x3f5f1298	0.87137747
31	0x3f4678be	0.7752799

bn1.bias f4 [32]
0	0xbc72dc38	-0.014823012
1	0x3ccb3f02	0.024810318
2	0x3cf6f9a5	0.030148337
3	0x3dd8c28a	0.105839804
4	0x3b7b26fe	0.0038322802
5	0xbcbecbac	-0.023290478
6	0xbda3a709	-0.07990844
7	0x3d14a411	0.03628928
8	0xbd393347	-0.045214918
9	0x3e0cba91	0.13743044
10	0x3dc5f189	0.0966521
11	0x3c911540	0.017710328
12	0x380ca31c	3.353051e-05
13	0x3cae5510	0.021280795
14	0x3c2d2112	0.010566967
15	0x3dc56b40	0.09639597
16	0x3e39f305	0.18159111
17	0xbcce86b6	-0.02521072
18	0x3d76eb74	0.06028314
19	0xbd1aa6d1	-0.037756745
20	0x3e50c618	0.20388067
21	0x3d464827	0.048408654
22	0x3e2c5342	0.16828635
23	0x3e7336e8	0.23751414
24	0xbf9a7d01	-1.2069398
25	0x3e5bbf0c	0.21459597
26	0xbc1e9512	-0.009679096
27	0x3d0f31ad	0.034959484
28	0x3d0662f9	0.03280923
29	0x3af82c74	0.0018934147
30	0x3cbff845	0.023433814
31	0x3de7b43f	0.11313676

bn1.running_mean f4 [32]
0	0x3ab1a770	0.0013553929
1	0xbb114797	-0.0022167915
2	0xb7a731ec	-1.9931198e-05
3	0xb8d75d71	-0.00010269404
4	0xb899459a	-7.308573e-05
5	0x3a5bc93e	0.00083841744
6	0x3a0db39a	0.0005405486
7	0x39925615	0.00027911426
8	0xb8b780f6	-8.750141e-05
9	0x39836666	0.0002506256
10	0xb9501516	-0.00019844281
11	0x3a254d5d	0.00063057785
12	0x39472c56	0.00018994635
13	0x3a00334e	0.00048904575
14	0xbaa194d8	-0.0012327684
15	0xb9a35255	-0.00031151125
16	0xb8fcd951	-0.00012056775
17	0xb9be6354	-0.0003631363
18	0xb96ca3b1	-0.00022567694
19	0xbab377da	-0.0013692335
20	0xb99b2a75	-0.00029595537
21	0x3a3d4cc8	0.0007221219
22	0xb8dcb7d9	-0.00010524662
23	0x39f10966	0.00045974104
24	0xb90c7916	-0.00013396548
25	0xb9aae280	-0.00032593682
26	0x39529ae7	0.00020084866
27	0xb9077e6f	-0.00012921703
28	0x38bc1500	8.96845e-05
29	0xb9bf8122	-0.0003652657
30	0xb89f93eb	-7.609263e-05
31	0xb966e502	-0.00022019821

bn1.running_var f4 [32]
0	0x3e9c2532	0.30497128
1	0x3c6bba24	0.014387641
2	0x3dd1ec4d	0.10250149
3	0x3e5d76f3	0.21627407
4	0x3dbae1f9	0.09125132
5	0x3dfb011d	0.12256072
6	0x3dc26e01	0.09493638
7	0x3e3b4485	0.18287857
8	0x3d96e25b	0.07367393
9	0x3e65fbd7	0.2245935
10	0x3d96e598	0.0736801
11	0x3dca7b36	0.09886782
12	0x3e04856a	0.12941518
13	0x3ea3fb78	0.32027793
14	0x3dd5f6cb	0.10447463
15	0x3db2100f	0.08694469
16	0x3db56956	0.08857982
17	0x3e9be82e	0.30450577
18	0x3e202f6e	0.15643093
19	0x3eae04fb	0.33988175
20	0x3e13dc71	0.1443956
21	0x3d5e9f6a	0.054351248
22	0x3e6198d0	0.2203095
23	0x3da2b359	0.07944364
24	0x3dc80653	0.09766831
25	0x3e3a5a37	0.18198477
26	0x3e95dda7	0.2927067
27	0x3e8f0d85	0.27940002
28	0x3e2825bf	0.16420649
29	0x3e222b0d	0.15836735
30	0x3e738b33	0.23783569
31	0x3e4cb49f	0.19990776

conv2.weight f4 [32, 32, 3]
0	0x3da62504	0.08112529
1	0xbf28c072	-0.6591865
2	0xbf525152	-0.82155335
3	0x3e079d57	0.13243614
4	0x3cef81eb	0.029236754
5	0xbeab6e27	-0.33482477
6	0x3e3f7ff4	0.18701154
7	0x3e01d50b	0.12678926
8	0xbe507bbe	-0.20359704
9	0x3f0fd389	0.5618215
10	0xbd9210a6	-0.07132082
11	0xbf042da2	-0.5163213
12	0x3ef131bb	0.47108254
13	0xbe188773	-0.1489542
14	0xbe8bb8d9	-0.27289465
15	0x3eda7ab6	0.42671746
16	0xbded86d7	-0.11597984
17	0xbed02222	-0.4065104
18	0x3f4573fc	0.77130103
19	0x3e9b81be	0.30372423
20	0xbd8345fe	-0.06409834
21	0x3f2b63fb	0.66949433
22	0xbdc5deeb	-0.09661659
23	0xbe8c8ed7	-0.27452728
24	0x3ed990c9	0.42493275
25	0xbc64da79	-0.013968104
26	0xbf02f77c	-0.5115888
27	0x3eec3109	0.4613116
28	0xbea2591d	-0.31708613
29	0xbee3ad52	-0.4446817
30	0x3f269cbb	0.650829
31	0x3e5db552	0.216512
32	0xbe9f4e48	-0.3111441
33	0x3eb45638	0.3522203
34	0xbdb4defd	-0.08831594
35	0xbe2d636a	-0.16932455
36	0x3edd728e	0.4325146
37	0x3e365fc3	0.17809968
38	0xbed93d86	-0.4242975
39	0x3eb0b08e	0.345097
40	0xbee228f3	-0.44171867
41	0xbf230a84	-0.6368792
42	0x3d8dfa45	0.06932501
43	0x3dd1a90c	0.10237321
44	0xbe1d7e42	-0.15380195
45	0x3ef61bde	0.48068136
46	0x3c9edd72	0.019392703
47	0xbea74c7d	-0.32675543
48	0x3f027cb6	0.50971544
49	0x3f195f10	0.5991068
50	0x3cb9da3e	0.022687074
51	0x3e9c9b10	0.30587053
52	0xbf1faf0e	-0.6237649
53	0xbf983a5a	-1.1892807
54	0x3ea8c2f2	0.3296123
55	0x3e2cbbc1	0.16868497
56	0xbf0aa11b	-0.5415208
57	0x3eb33c5d	0.3500699
58	0xbecbca20	-0.39802647
59	0xbf8b724b	-1.0894254
60	0x3f051eef	0.52000326
61	0xbd99260f	-0.07477962
62	0xbe0027e1	-0.12515213
63	0x3e2120eb	0.15735213
64	0xbcdc96b3	-0.026927328
65	0x3bd44f4e	0.0064791804
66	0x3f011fae	0.50438964
67	0xbd3ff279	-0.0468621
68	0xbee09c38	-0.43869185
69	0x3ec6ba7d	0.38814154
70	0xbd6ac0b6	-0.05731269
71	0xbea05f3c	-0.31322658
72	0x3daf4b8a	0.0855933
73	0xbdd0cb51	-0.101950295
74	0xbf25237d	-0.64507276
75	0x3f176c4e	0.59149635
76	0x3e3485b6	0.17629132
77	0xbf00e7c9	-0.50353676
78	0x3ea13e83	0.31493005
79	0xbf021959	-0.5081993
80	0xbf705cbe	-0.93891513
81	0x3e4dac04	0.2008515
82	0xbd81f23f	-0.06345033
83	0xbf23131f	-0.6370105
84	0x3e9fa5ba	0.31181127
85	0x3d06b7e8	0.03289023
86	0xbf123c09	-0.57122856
87	0x3e921831	0.28534082
88	0x3cee02dd	0.0290541
89	0xbede32dd	-0.4339818
90	0x3efc5335	0.49282232
91	0xbe8a32bb	-0.2699183
92	0xbf1d3a49	-0.6141706
93	0x3e4db41e	0.2008824
94	0x3c1d3ddf	0.009597271
95	0xbdce5cee	-0.10076319
96	0xbe9c072f	-0.3047423
97	0xbe706f38	-0.23479927
98	0x3cbc61cf	0.022995858
99	0xbf08a782	-0.53380597
100	0xbf38c7ab	-0.7217967
101	0xbef12669	-0.47099617
102	0x3bea6b76	0.0071539236
103	0x3e21d824	0.15805107
104	0x3cace6f2	0.021106217
105	0x3d91c073	0.07116785
106	0xbd52a619	-0.051427934
107	0xbc5ea033	-0.013587999
108	0x3de4ea94	0.11177555
109	0x3e68176e	0.22665188
110	0x3e641f29	0.22277512
111	0x3c0e2a71	0.008677111
112	0xbdc3bc58	-0.09557408
113	0x3d13b9a2	0.036065705
114	0x3e516819	0.20449866
115	0x3e23136f	0.15925382
116	0x3e7b948a	0.24568382
117	0xbe0cf7cc	-0.13766402
118	0x3db0dd58	0.08635968
119	0x3eb66655	0.35624948
120	0xbd3982ae	-0.04529064
121	0xbd69a54e	-0.057042412
122	0x3d24d574	0.040242627
123	0xbe2ed8b6	-0.17074856
124	0xbe821f6d	-0.254146
125	0x3d0db21c	0.034593686
126	0xbdfe46e5	-0.12415866
127	0x3d8e36f0	0.06944072
128	0x3ce6779c	0.028133206
129	0x3e678654	0.22609836
130	0xbe1ddb46	-0.15415677
131	0xbe124953	-0.14285783
132	0x3dd7def7	0.10540574
133	0x3d8ee430	0.06977117
134	0x3e523d5f	0.20531224
135	0xbe1e1e23	-0.15441184
136	0xbe55babf	-0.20872019
137	0x3da9e86e	0.082962856
138	0x3dddaa6d	0.10823522
139	0xbc43f1ab	-0.011959474
140	0xbe8a6f7a	-0.27038175
141	0x3d05b439	0.032642577
142	0xbc4e05b1	-0.012574599
143	0x3daec630	0.08533895
144	0xbe3a550c	-0.18196505
145	0x3dd53c56	0.10411899
146	0xbb1cda21	-0.0023933726
147	0xbde90902	-0.11378671
148	0xbd44a0a7	-0.048004773
149	0x3d95abec	0.07308182
150	0x3e821df8	0.2541349
151	0x3f02cdf7	0.5109553
152	0x3e7aaecf	0.24480747
153	0xbe0a4ad5	-0.13505109
154	0xbd148ce0	-0.03626716
155	0xbe2ff2e4	-0.17182499
156	0x3eab2522	0.33426768
157	0x3e432889	0.19058432
158	0x3e6282a5	0.2212015
159	0x3f7c0bcf	0.9845552
160	0x3f265fc2	0.64989865
161	0x3f747e98	0.95505667
162	0x3e8f5193	0.27991924
163	0x3e987488	0.29776406
164	0x3e85ab6e	0.26107353
165	0x3e0907aa	0.1338183
166	0xbd55522e	-0.052080326
167	0x3e141197	0.14459835
168	0x3ca9ab32	0.020711515
169	0xbd9c0a06	-0.07619099
170	0xbe269af6	-0.1627005
171	0x3e4b15dd	0.19832559
172	0x3f0c8403	0.54888934
173	0x3ed6c81e	0.41949552
174	0xbea38630	-0.31938314
175	0xbdcde694	-0.10053745
176	0x3c0e338e	0.008679284
177	0xbe8a3f81	-0.27001575
178	0x3d000247	0.03125217
179	0xbbf4ad81	-0.0074669723
180	0xbe0fc3ce	-0.14039537
181	0xbdf085c1	-0.117442615
182	0xbe194fc9	-0.14971842
183	0xbb15db7a	-0.0022866414
184	0xbcc75a2f	-0.024334995
185	0x3d436e08	0.047712356
186	0xbe61ccab	-0.22050731
187	0x3d8ebda2	0.06969763
188	0x3e04ea07	0.129799
189	0x3e2f239e	0.1710343
190	0xbdab1a5f	-0.08354639
191	0xbe66fffc	-0.22558588
192	0xbe887723	-0.26653394
193	0xbea45847	-0.320986
194	0xbea465e7	-0.32108995
195	0xbf521271	-0.8205939
196	0xbf362e5a	-0.71164477
197	0xbf70961f	-0.93979067
198	0xbb55dfe3	-0.0032634668
199	0xbe728e93	-0.236872
200	0xbea40225	-0.32032886
201	0x3d97fc26	0.074211404
202	0xbd5f6a33	-0.05454464
203	0xbdb020a4	-0.08599976
204	0x3d39de55	0.045378048
205	0xbe2e007c	-0.16992372
206	0xbea7b935	-0.3275849
207	0xbd566961	-0.05234659
208	0x3d73292d	0.05936544
209	0xbd1ebc20	-0.03875363
210	0x3d0131e5	0.031541724
211	0x3d12f50c	0.035878226
212	0x3e89b19e	0.26893324
213	0xbe38154d	-0.17976876
214	0x3e4fc07a	0.20288268
215	0xbe7f98aa	-0.2496058
216	0x3e5a61db	0.21326391
217	0x3e287abe	0.16453072
218	0x3ccf9db4	0.025343753
219	0x3d9a78e6	0.07542591
220	0xbdf55b52	-0.119803086
221	0xbe206cff	-0.15666579
222	0x3be99ce6	0.0071292995
223	0x3ea0f017	0.31433174
224	0x3ee3549f	0.44400498
225	0x3e832c0f	0.25619552
226	0xbd06b68e	-0.03288894
227	0xbe9070a6	-0.28210944
228	0x3e11f8b3	0.14255027
229	0x3dada0c7	0.084779315
230	0xbd8dca87	-0.06923395
231	0xbec37afe	-0.38179773
232	0xbea5e509	-0.32401302
233	0xbf3c09e4	-0.7345259
234	0xbe3e8f68	-0.18609393
235	0xbe3b3a28	-0.18283904
236	0xbed92a15	-0.4241492
237	0x3e2806bc	0.16408819
238	0xbd8583ee	-0.06519304
239	0xbbcb1bea	-0.006198396
240	0x3e5da318	0.21644247
241	0x3e5a7154	0.21332294
242	0x3eaeee48	0.3416617
243	0xbe0592fe	-0.13044354
244	0xbefb7ddf	-0.4911947
245	0xbf0f381c	-0.5594499
246	0x3daf8b22	0.08571459
247	0x3dbd6740	0.09248209
248	0xbe82b50e	-0.2552876
249	0xbe81a813	-0.25323543
250	0xbea73dc5	-0.32664314
251	0xbf2ce74b	-0.67540425
252	0x3d0fcf65	0.035109896
253	0x3ecc4081	0.39892963
254	0xbc82caa6	-0.01596577
255	0xbd1124ce	-0.03543549

conv2.bias f4 [32]
0	0x37787245	1.4808557e-05
1	0x37eb6ad7	2.8063934e-05
2	0x35cb63c4	1.5153714e-06
3	0x37aab277	2.0348683e-05
4	0xb7b61b1a	-2.170871e-05
5	0x35f87ae1	1.8513202e-06
6	0x399ec42f	0.00030282277
7	0xb6500960	-3.0999872e-06
8	0xb8c94718	-9.597669e-05
9	0xb91e97c2	-0.00015124588
10	0x35ebf3f2	1.7579862e-06
11	0xb7a9330a	-2.0170137e-05
12	0xb6539918	-3.1530562e-06
13	0x370b249a	8.293568e-06
14	0x37c2422e	2.315742e-05
15	0xb80af4db	-3.3129803e-05
16	0xb75c009b	-1.3113163e-05
17	0xb721b4d1	-9.638447e-06
18	0x38129052	3.494352e-05
19	0xb72fba65	-1.0474211e-05
20	0x38870bd1	6.4395026e-05
21	0xb643d0ee	-2.9178877e-06
22	0x37c674a3	2.3657753e-05
23	0x38a06c91	7.6496166e-05
24	0x38f3151e	0.00011591076
25	0x385d34a0	5.2739517e-05
26	0x385238b6	5.0120718e-05
27	0x3869b95e	5.5724166e-05
28	0x38399730	4.424824e-05
29	0x3825d42e	3.9536673e-05
30	0x37dc1ac6	2.6238511e-05
31	0xb624da6d	-2.4565045e-06

bn2.weight f4 [32]
0	0x3f2f9a30	0.68594646
1	0x3e2263ab	0.15858333
2	0x400b968d	2.181064
3	0x3fd36460	1.6515007
4	0x3e82c98b	0.2554439
5	0x4027544e	2.6145205
6	0x3fb43885	1.4079748
7	0x3f5bc5e3	0.85848826
8	0x3ff11d94	1.8837152
9	0x3faa3010	1.3295918
10	0x3fa21094	1.2661309
11	0x3f6d7d51	0.9276934
12	0x3e836883	0.25665674
13	0x3e9ad304	0.30239117
14	0x3f628642	0.8848611
15	0x3f2bb611	0.67074686
16	0x3f68c6c9	0.9092832
17	0x3e5a2407	0.21302806
18	0x3eb4b5f2	0.35295063
19	0x3d9443ac	0.0723947
20	0x3f9e3d94	1.2362542
21	0x3fbb421a	1.4629548
22	0x3ea05ef4	0.31322443
23	0x3edf9e23	0.43675336
24	0x400b9d80	2.181488
25	0x3f2804bf	0.6563224
26	0x3fa36c6a	1.276746
27	0x3f6a6dc5	0.91573745
28	0x400df8a9	2.218302
29	0x3efa67bd	0.4890727
30	0x3f5c5d7b	0.8608014
31	0x3e1f3dc9	0.15550913

bn2.bias f4 [32]
0	0x3e273623	0.16329245
1	0x3ef05060	0.4693632
2	0xbf15216d	-0.5825413
3	0xbf139d8d	-0.5766228
4	0x3e95a282	0.29225546
5	0xbf03d61b	-0.51498574
6	0x3e23d135	0.15997775
7	0x3d66f333	0.056384277
8	0xbdc0b87b	-0.09410187
9	0xbe5ce67b	-0.21572296
10	0xbe555859	-0.20834483
11	0x3dc57e73	0.09643259
12	0x3e1b1ae5	0.15146978
13	0x3e59ecc9	0.21281733
14	0xbcc7a821	-0.024372162
15	0x3ec21c2f	0.37912127
16	0xbe5e9e3c	-0.21740049
17	0x3e166493	0.14686804
18	0x3f2aedbc	0.66769004
19	0x3e16e5af	0.14736055
20	0xbea19d73	-0.31565437
21	0xbeb280be	-0.34863847
22	0x3ee2faa1	0.4433184
23	0x3ea72fcf	0.32653663
24	0xbf13caa9	-0.5773111
25	0x3f736aa7	0.95084614
26	0xbc9ced8a	-0.019156236
27	0xbdcab7db	-0.09898349
28	0xbf33ef9c	-0.7028749
29	0x3e31c1b6	0.17359051
30	0x3e3baf06	0.18328485
31	0x3e00d49e	0.12581107

bn2.running_mean f4 [32]
0	0xbf89fbee	-1.0780008
1	0x3f9f2eb8	1.2436132
2	0xc08133de	-4.0375814
3	0xc07ceeb6	-3.9520698
4	0x3f835368	1.0259829
5	0xc0e6233b	-7.1918006
6	0xc0778c7f	-3.8679502
7	0xc03ce320	-2.9513626
8	0xc0b66561	-5.6998754
9	0xc09205aa	-4.5631914
10	0xc03d1df0	-2.9549522
11	0xc03bac2f	-2.9323843
12	0x40b45081	5.634827
13	0x3ff2aba5	1.8958632
14	0xc03bd2eb	-2.9347484
15	0xbf9f4cfa	-1.2445366
16	0xc01b947b	-2.4309375
17	0x3f9df272	1.2339613
18	0x3dbe44e2	0.09290482
19	0x3df7fd9d	0.1210892
20	0xc0453b78	-3.0817547
21	0xc076508f	-3.848667
22	0x3ea400a9	0.32031754
23	0xbe87bcb0	-0.26511145
24	0xc0a33446	-5.100131
25	0xc0a44791	-5.133736
26	0xc05e8fbd	-3.477523
27	0xbfe972f7	-1.823821
28	0xc0ba6c49	-5.8257184
29	0xbf84579c	-1.0339236
30	0xc0477ea8	-3.1171055
31	0x404fc5f6	3.2464576

bn2.running_var f4 [32]
0	0x41c53654	24.651527
1	0x414ef74c	12.935375
2	0x42e08e62	112.27809
3	0x4294898b	74.26864
4	0x41d6f956	26.871746
5	0x438af6d3	277.9283
6	0x42f9661d	124.69944
7	0x428c4aa7	70.145805
8	0x434b1122	203.06693
9	0x423a373e	46.553947
10	0x42aad928	85.42413
11	0x4287e2fc	67.94333
12	0x42a0486c	80.14145
13	0x4232709e	44.609978
14	0x428f2115	71.56461
15	0x424c5b52	51.08918
16	0x42a038e2	80.1111
17	0x41a9eb48	21.239883
18	0x424dc7f2	51.44526
19	0x40f6f5a2	7.7174845
20	0x422abccd	42.684376
21	0x4313b4e4	147.7066
22	0x41889539	17.072863
23	0x420b3eb6	34.81124
24	0x4295ea23	74.9573
25	0x42cd0c13	102.52358
26	0x43180587	152.02159
27	0x4282e0b7	65.438896
28	0x4308f48d	136.95528
29	0x41c4cc6a	24.599812
30	0x42ba664e	93.199814
31	0x4216b01c	37.67198

conv3.weight f4 [64, 32, 3]
0	0xbe7e65ef	-0.24843572
1	0xbe6d808c	-0.23193568
2	0xbf369f0d	-0.7133644
3	0x3ebe79a6	0.37202185
4	0x3c113925	0.008863722
5	0x3dac5cf7	0.08416169
6	0xbe211e16	-0.15734133
7	0xbdab03c0	-0.08350325
8	0xbec889e1	-0.39167693
9	0xbe193f9e	-0.14965674
10	0xbca4dda2	-0.020125214
11	0xbdba1790	-0.090865254
12	0xbe3b3e27	-0.18285428
13	0xbdfe9ac9	-0.12431867
14	0x3ce63b69	0.0281045
15	0xbd8e790f	-0.06956684
16	0x3d1f3467	0.038868334
17	0xbf261b17	-0.64885086
18	0xbead0622	-0.3379374
19	0xbf44db5b	-0.7689721
20	0xbeef5eba	-0.46751958
21	0xbec3fcd6	-0.38278836
22	0xbd4fbc35	-0.050716598
23	0xbc862bb6	-0.016378265
24	0xbe84d837	-0.2594621
25	0xbdb58006	-0.08862309
26	0xbe79cd54	-0.24394733
27	0xbd837b3f	-0.06419992
28	0xbe904dcc	-0.28184354
29	0xbf25cf8c	-0.64769816
30	0xbe45387e	-0.19259831
31	0xbda9d7f0	-0.0829314
32	0xbe1c0d24	-0.15239388
33	0x3e5826c0	0.21108532
34	0x3e428be9	0.18998684
35	0xbdfded83	-0.123988174
36	0xbeecdbdb	-0.46261486
37	0xbe813deb	-0.25242552
38	0x3e582f2d	0.21111746
39	0xbdf5c0b5	-0.119996466
40	0x3d8906d1	0.06690753
41	0x3df9f887	0.12205606
42	0x3ee4fb84	0.4472314
43	0xbdb73ddc	-0.089473456
44	0x3c896ac0	0.016774535
45	0xbe2fc9eb	-0.1716687
46	0xbf27ef07	-0.655991
47	0xbece7972	-0.4032703
48	0x3e2fcc3a	0.1716775
49	0xbd7d4cf1	-0.061840955
50	0xbe8bba9a	-0.27290803
51	0xbf1c96c1	-0.6116753
52	0x3c2ec266	0.010666465
53	0x3e0da80b	0.13833635
54	0x3e114636	0.1418694
55	0x3d57ffc1	0.05273414
56	0xbdb7dee9	-0.089780636
57	0xbea2180c	-0.3165897
58	0x3e87e404	0.2654115
59	0x3e1c35b0	0.15254855
60	0x3f29f18d	0.663842
61	0x3d9f15d0	0.07767832
62	0xbe17ded1	-0.14831091
63	0xbe8ca2ed	-0.27468053
64	0xbe84373d	-0.25823393
65	0xbe3866ca	-0.18007961
66	0xbe45f65a	-0.19332257
67	0x3e5b4f30	0.21416926
68	0x3eda8be9	0.42684868
69	0x3d5bde70	0.05367893
70	0xbdd1fa0d	-0.102527715
71	0x3c036b1c	0.008021142
72	0x3e1cb770	0.15304351
73	0x3db0ca53	0.0863234
74	0xbf3688cb	-0.7130248
75	0x3e99c339	0.30031756
76	0xbcbc83aa	-0.023012001
77	0xbf2827df	-0.6568584
78	0xbdc45f40	-0.0958848
79	0xbe2e08c5	-0.16995533
80	0x3e0c7f43	0.13720421
81	0xbc9b6127	-0.018967224
82	0xbe01faa3	-0.12693267
83	0x3e18444a	0.148698
84	0xbdd168cb	-0.10225066
85	0x3d89eda1	0.06734777
86	0xbe0e971c	-0.13924831
87	0xbf849d22	-1.0360453
88	0xbf1ae200	-0.605011
89	0x3d61790b	0.055047076
90	0xbecc492d	-0.3989958
91	0xbe0b9d86	-0.13634309
92	0x3d2e02e3	0.04248322
93	0xbe855b7e	-0.26046365
94	0xbd53e1cf	-0.05172902
95	0x3e141b07	0.14463435
96	0xbe9c0c76	-0.30478257
97	0xbe9f248e	-0.31082577
98	0xbec69d5e	-0.38791937
99	0x3c8f4298	0.017487809
100	0x3dc0f728	0.09422141
101	0xbe2284a0	-0.15870905
102	0xbd8eb382	-0.06967832
103	0xbdb321d5	-0.08746687
104	0xbe35e22f	-0.17762063
105	0xbd110b0a	-0.03541092
106	0xbd646f03	-0.05576993
107	0xbd8aed54	-0.06783548
108	0x3e9bf863	0.30462942
109	0x3e7e3623	0.24825339
110	0x3f1e32f5	0.61796504
111	0xbeb9a144	-0.36255848
112	0xbef95176	-0.48694962
113	0xbf461fae	-0.7739209
114	0xbe8fa677	-0.2805669
115	0xbebbd5f8	-0.36686683
116	0xbe4b9e25	-0.19884546
117	0x3e5f7c44	0.21824747
118	0x3e73d110	0.2381022
119	0x3e57fe2d	0.21093054
120	0xbe121dce	-0.14269182
121	0xbd9da42d	-0.0769733
122	0xbd7f606f	-0.062347826
123	0xbe709bec	-0.2349698
124	0xbde6539b	-0.11246415
125	0xbe9da75f	-0.30791757
126	0x3d6172ef	0.05504125
127	0xbe89558f	-0.2682309
128	0xbef10bd4	-0.47079337
129	0xbba7f449	-0.0051255566
130	0xbe38c2cf	-0.18043064
131	0x3d4decee	0.050274782
132	0x3e4324ab	0.19056956
133	0x3e985470	0.2975192
134	0x3e0fe070	0.1405046
135	0xbec97d31	-0.39353326
136	0xbe86237d	-0.2619895
137	0xbe92e1db	-0.2868794
138	0xbc71da92	-0.014761584
139	0xbe98ea4c	-0.29866254
140	0xbe6647a8	-0.22488272
141	0xbe202e3d	-0.15642639
142	0xbe54aa5d	-0.20768113
143	0xbe54aec6	-0.20769796
144	0x3da66fa2	0.08126761
145	0x3e20170a	0.15633789
146	0xbd2b07cc	-0.041755483
147	0x3db20293	0.08691897
148	0xbdd27145	-0.10275511
149	0xbed62a4b	-0.41829142
150	0x3d9e8982	0.07741071
151	0xbbfc8b2b	-0.00770702
152	0x3e926d68	0.28599095
153	0x3e57cb18	0.21073568
154	0x3eace26a	0.3376649
155	0x3e09ca04	0.13455969
156	0xbe8c2723	-0.2737361
157	0xbe930abf	-0.28719136
158	0x3b429e8a	0.0029696547
159	0x3e2da711	0.16958262
160	0x3c9fc377	0.019502385
161	0xbe0cd620	-0.13753557
162	0x3dd1077e	0.10206507
163	0xbcb44cda	-0.022009302
164	0x3ec62c14	0.38705504
165	0xbe57b23e	-0.21064088
166	0xbea7271d	-0.3264703
167	0x3ed260c9	0.41089466
168	0xbe8013d8	-0.2501514
169	0xbe055919	-0.1302227
170	0xbebe44ae	-0.37161773
171	0xbda99281	-0.082798965
172	0x3e03a38f	0.12855361
173	0xbe980a7e	-0.29695505
174	0x3f0cebc4	0.5504725
175	0x3f0f69a4	0.5602057
176	0x3e1a4492	0.1506522
177	0x3d8c7d08	0.06859785
178	0x3db5597d	0.08854959
179	0x3f03bedb	0.514631
180	0x3d93b77e	0.07212733
181	0x3d1b2f4e	0.03788691
182	0xbe1f8b85	-0.15580566
183	0x3ca12641	0.019671561
184	0xbb489a1f	-0.0030609441
185	0x3d966c15	0.07344834
186	0xbec376c2	-0.38176543
187	0xbf17b361	-0.59258085
188	0xbf5115c5	-0.8167384
189	0x3ec47213	0.38368282
190	0x3e937322	0.28798777
191	0x3efac376	0.4897725
192	0x3dc536f4	0.09629622
193	0x3de221a9	0.110415764
194	0x3d96f71a	0.0737135
195	0xbdae2ff7	-0.08505242
196	0xbd258e63	-0.040418994
197	0x3c4963c4	0.012291852
198	0xbe6559b1	-0.22397496
199	0x3f98082f	1.1877497
200	0xbf256f69	-0.64623123
201	0xbe7594ef	-0.23982595
202	0x3f0901f1	0.5351859
203	0xbf22c23d	-0.63577634
204	0xbe9e279e	-0.308896
205	0xbe876e06	-0.2645113
206	0x3de217d2	0.110396996
207	0xbdb05379	-0.08609671
208	0x3f58f44a	0.84747756
209	0xbefa66d9	-0.48906592
210	0xbac3024d	-0.0014878005
211	0x3ba8aea8	0.005147774
212	0x3e773b6a	0.24143758
213	0x3cff3095	0.031151095
214	0x3e4f0772	0.20217684
215	0xbe9e4eef	-0.30919597
216	0x3d659f94	0.05606039
217	0x3f6c2a13	0.922517
218	0x3d486543	0.048924696
219	0xbd066753	-0.03281338
220	0x3e225414	0.15852386
221	0x3eaba809	0.33526638
222	0x3ec6e0d0	0.38843393
223	0xbec1f9fe	-0.3788604
224	0x3d8ada9b	0.06779977
225	0xbe29ae68	-0.16570437
226	0xbd7b86ae	-0.061407737
227	0xbd14bde8	-0.03631392
228	0xbe49e184	-0.19714934
229	0xbe77cadd	-0.2419848
230	0xbe7708bc	-0.24124426
231	0xbec0fe1a	-0.37693864
232	0xbea79f67	-0.32738802
233	0x3e996fb1	0.29968026
234	0xbe39cdca	-0.18144909
235	0x3f0bd2d0	0.5461855
236	0x3e648150	0.22314954
237	0x3ea197ae	0.31561035
238	0xbe9875ae	-0.29777282
239	0x3e59fceb	0.21287887
240	0x3e6e124c	0.23249167
241	0x3e496d31	0.1967056
242	0xbeef7fc9	-0.4677718
243	0xbe87e1c9	-0.26539448
244	0xbe86f58f	-0.2635922
245	0x3d5d996d	0.054101396
246	0x3c456313	0.012047547
247	0xbe99c94d	-0.30036393
248	0x3ddd5022	0.108063
249	0xbe485caa	-0.19566599
250	0xbe4cc489	-0.19996847
251	0xbd41d1a7	-0.04731908
252	0x3d89e687	0.06733423
253	0xbea953a8	-0.33071637
254	0x3e8d3c5a	0.27585107
255	0x3e888fa2	0.26672083

conv3.bias f4 [64]
0	0x3830288a	4.1999425e-05
1	0xb6056c05	-1.988142e-06
2	0x390e5269	0.00013572875
3	0xb896ad34	-7.184819e-05
4	0x391cfc82	0.00014971386
5	0xb80b636a	-3.323277e-05
6	0xb8178695	-3.6126545e-05
7	0xb9621b83	-0.00021563288
8	0xb8a7f2a0	-8.008373e-05
9	0x39d91b2a	0.00041409704
10	0xb7e8280c	-2.7675203e-05
11	0xb88076dc	-6.125655e-05
12	0xb8058175	-3.1830237e-05
13	0xb80ab357	-3.3068787e-05
14	0xb7f3e741	-2.9075543e-05
15	0x384d3466	4.892461e-05
16	0x38e306f1	0.000108254964
17	0xb8baa357	-8.8995956e-05
18	0xb7195788	-9.139891e-06
19	0x392654f2	0.00015862638
20	0x39125b79	0.00013957721
21	0x36d37045	6.30136e-06
22	0x37fd080b	3.0163696e-05
23	0x3612195c	2.1770456e-06
24	0x38a93904	8.069168e-05
25	0xb9649e4e	-0.00021802748
26	0xb5a02bfc	-1.193373e-06
27	0xb800c30c	-3.069923e-05
28	0xb793763b	-1.7578821e-05
29	0x380c4775	3.344515e-05
30	0xb58f15a7	-1.0660632e-06
31	0x3833031c	4.267982e-05
32	0xb8d348d6	-0.00010074831
33	0x38cb513b	9.694925e-05
34	0xb8cf3272	-9.879925e-05
35	0x38f8aaa5	0.000118573465
36	0xb79da766	-1.879381e-05
37	0x374ee3f6	1.2331633e-05
38	0x384bf206	4.8624373e-05
39	0xb8ab60d1	-8.171949e-05
40	0x397f82ec	0.00024367467
41	0xb7d08c0a	-2.4860743e-05
42	0x37ed03f8	2.825445e-05
43	0x37cc2c39	2.4339288e-05
44	0xb83d19b7	-4.508506e-05
45	0x37c58393	2.3545499e-05
46	0x35e8e36e	1.7351538e-06
47	0xb6cae6f1	-6.0469542e-06
48	0xb987d5b6	-0.00025908434
49	0x384d0ff0	4.889065e-05
50	0xb8fe7124	-0.00012132738
51	0x37e4b4fe	2.7263999e-05
52	0x38891f94	6.538551e-05
53	0xb835820e	-4.3274886e-05
54	0xb70a42ec	-8.241022e-06
55	0xb6a794ca	-4.994309e-06
56	0x3816a97d	3.5920635e-05
57	0xb670c989	-3.5880096e-06
58	0x36dba35b	6.5457257e-06
59	0xb7787f95	-1.4811657e-05
60	0x38c66a1c	9.46114e-05
61	0xb7ade040	-2.0727632e-05
62	0x372d341f	1.0323739e-05
63	0x37e0eff4	2.6814618e-05

bn3.weight f4 [64]
0	0x3f1dc555	0.6162923
1	0x3ed40b9f	0.41415116
2	0x3f8c32c4	1.0952992
3	0x3f9a1cea	1.2040074
4	0x3f431913	0.76210135
5	0x3f94ad84	1.1615453
6	0x3fb82279	1.438552
7	0x3fd73f6c	1.681623
8	0x3f5eaf58	0.86986303
9	0x3fa02abc	1.2513041
10	0x3f8d28a1	1.1028024
11	0x3f65d12f	0.89772314
12	0x3ea2b25d	0.31776705
13	0x3f2bb2cc	0.670697
14	0x3f10519a	0.56374514
15	0x3f746c7b	0.9547803
16	0x3f8b4be8	1.088254
17	0x3f5b4a08	0.8565984
18	0x3fbdf777	1.4841145
19	0x3f21d566	0.63216245
20	0x3fb70139	1.4297248
21	0x3f241c6c	0.6410587
22	0x3f891a9a	1.0711243
23	0x3f7a7016	0.9782728
24	0x3ec5d29b	0.38637242
25	0x3f09a847	0.53772396
26	0x3f0af083	0.5427324
27	0x3e932d5f	0.28745553
28	0x3f213e13	0.6298534
29	0x3fb80ed8	1.437953
30	0x3f17dd97	0.59322494
31	0x3fa7b810	1.3103046
32	0x3f82a452	1.0206397
33	0x3ef27440	0.47354317
34	0x3f1dd120	0.61647224
35	0x3f42395f	0.7586879
36	0x3f39ac81	0.72528845
37	0x3f9578c9	1.1677486
38	0x3fafabf5	1.3724352
39	0x3fc23670	1.5172863
40	0x3f8a4250	1.0801487
41	0x3f980bb3	1.187857
42	0x3f88b111	1.0679036
43	0x3f61c3de	0.88189495
44	0x3f8227ed	1.0168434
45	0x3f98dc18	1.1942167
46	0x3fca123c	1.5786815
47	0x3fb8e66e	1.4445322
48	0x3fa20587	1.2657937
49	0x3f853348	1.0406275
50	0x3f7dbd33	0.9911682
51	0x3fd3a4c1	1.6534654
52	0x3f20458e	0.6260613
53	0x3f178c2d	0.59198266
54	0x3fa9a216	1.325259
55	0x3ef8a33c	0.48562038
56	0x3fb644f0	1.4239788
57	0x3f3751c9	0.7160917
58	0x3f2ffbb8	0.6874347
59	0x3e799027	0.24371396
60	0x3fd36e1e	1.651798
61	0x3f831547	1.0240868
62	0x3f6c0d0f	0.92207426
63	0x3f32ce3f	0.69845957

bn3.bias f4 [64]
0	0xbda6626f	-0.081242435
1	0x3e67f1bc	0.22650808
2	0xbf0d8163	-0.55275553
3	0xbef14f3b	-0.4713076
4	0x3e0ef899	0.1396202
5	0xbeb2ea65	-0.34944454
6	0xbf4d21e2	-0.80129826
7	0xbf36a5b5	-0.713466
8	0xbde73255	-0.11288897
9	0xbf0f3f42	-0.559559
10	0xbea61740	-0.32439613
11	0xbe3d5e11	-0.18492915
12	0x3f34b770	0.70592403
13	0xbea64839	-0.32476977
14	0x3d849ca1	0.06475187
15	0xbe5f0f0b	-0.21783082
16	0xbdf7f2f5	-0.12106887
17	0xbe82d717	-0.25554726
18	0xbf227263	-0.6345579
19	0xbd1727bc	-0.036903128
20	0xbf07add3	-0.5299961
21	0xbe8eec01	-0.27914432
22	0xbe7a5bae	-0.24449036
23	0xbe8b548c	-0.27212942
24	0xbf3660cc	-0.7124145
25	0xbeef6a53	-0.46760806
26	0xbd9dd8ac	-0.077073425
27	0xbf660294	-0.89847684
28	0xbe1c60e9	-0.15271343
29	0xbecdfbdf	-0.40231225
30	0xbef1e7ad	-0.47247067
31	0xbf174871	-0.5909491
32	0xbea24c3e	-0.31698793
33	0x3f0b1529	0.5432916
34	0x3f1d612d	0.61476403
35	0xbdce8f4b	-0.10085925
36	0xbe77f3df	-0.24214123
37	0xbf2423e1	-0.64117247
38	0xbf316ca4	-0.693064
39	0xbf0b9ee0	-0.545393
40	0xbd290250	-0.04126197
41	0xbf44ae3e	-0.7682837
42	0xbece3fbd	-0.40283003
43	0xbe9e94b3	-0.30972824
44	0xbf08e100	-0.5346832
45	0xbf06077b	-0.52355164
46	0xbf0fc892	-0.5616542
47	0xbf3b9235	-0.7326997
48	0xbec71db8	-0.3888986
49	0xbf18180d	-0.594117
50	0xbea75d76	-0.32688493
51	0xbf36dd3e	-0.7143134
52	0xbdf0a6db	-0.11750575
53	0xbe156e83	-0.14592938
54	0xbf4aea67	-0.7926392
55	0xbe9cf5e1	-0.3065634
56	0xbf2ab4b6	-0.66681993
57	0xbe399efd	-0.18127055
58	0x3d174459	0.036930416
59	0x3e856161	0.26050857
60	0xbf96ad14	-1.1771569
61	0xbecfe89a	-0.40607148
62	0xbe0c50b0	-0.13702655
63	0x3e9abfa7	0.30224344

bn3.running_mean f4 [64]
0	0xc0669cdb	-3.6033237
1	0xbfe85e83	-1.8153843
2	0x3f7fe732	0.9996215
3	0xbfc1e564	-1.514813
4	0xc028af3d	-2.6356957
5	0x3da9869e	0.08277629
6	0x3e3d4c53	0.18486147
7	0x3f84e6c3	1.0382923
8	0xbc10b107	-0.008831269
9	0xbfb4a4bc	-1.4112773
10	0xbe9725da	-0.29521066
11	0xc02e2c52	-2.721455
12	0xc008a1b0	-2.1348686
13	0xbfc4f680	-1.5387726
14	0xc001969e	-2.024818
15	0xc0718047	-3.7734544
16	0xc0440a98	-3.0631466
17	0xc021ce9c	-2.5282354
18	0x3e649a84	0.22324568
19	0xbfa298d3	-1.2702888
20	0xbe2c9653	-0.16854219
21	0xc004a0d9	-2.0723174
22	0xc01c90f4	-2.4463472
23	0xbf88b402	-1.0679934
24	0x40533992	3.3003888
25	0xbffcd006	-1.9750984
26	0xc029277b	-2.6430347
27	0xbfc664ce	-1.5499513
28	0xbfe6fb5c	-1.8045459
29	0xbfe1d1e5	-1.764218
30	0xc03671f0	-2.8507042
31	0xbf07f62f	-0.5311002
32	0xc02d6b91	-2.7096903
33	0xbf6e503c	-0.9309118
34	0xc00b3289	-2.1749594
35	0xbf25d08d	-0.6477135
36	0xc035626c	-2.8341322
37	0x3eb1a1c2	0.34693724
38	0xbf93dad5	-1.1551157
39	0xc01584a4	-2.3362207
40	0xc014dabd	-2.3258507
41	0x3eff8486	0.49905795
42	0xc01717ec	-2.360835
43	0xbfbfe1fa	-1.4990838
44	0xc029f89b	-2.6557987
45	0xbff3f983	-1.906052
46	0xbfd4e177	-1.6631306
47	0xbfeeaccc	-1.8646483
48	0xbea72ba5	-0.32650486
49	0xc0442163	-3.0645378
50	0xc0531197	-3.2979486
51	0xbfc0d9a1	-1.5066415
52	0xbdc80275	-0.09766094
53	0xc05862ce	-3.3810306
54	0xbfe92cf2	-1.8216841
55	0xc02af46e	-2.6711688
56	0xbf86c51c	-1.0528903
57	0xc04aae22	-3.1668782
58	0xc059f191	-3.405369
59	0xc03f4db1	-2.989117
60	0x401aa2f8	2.4161968
61	0xc0261db7	-2.5955637
62	0xc04fefc8	-3.24901
63	0x3f25b252	0.6472522

bn3.running_var f4 [64]
0	0x3ffa4a8d	1.9554001
1	0x404e1ebc	3.2206259
2	0x3fbc24ce	1.4698732
3	0x40117f39	2.27339
4	0x4038f23b	2.8897846
5	0x40213bbb	2.5192707
6	0x400c2a0b	2.190066
7	0x3ff9797f	1.9490203
8	0x3ffd1bc9	1.9774104
9	0x3fdf7739	1.7458259
10	0x400d9d1a	2.2127137
11	0x404eedde	3.2332683
12	0x3fc9ec52	1.5775244
13	0x3f8a8fd3	1.0825142
14	0x3fc938ac	1.572042
15	0x4047b619	3.1204894
16	0x40453647	3.0814378
17	0x401a0cc1	2.4070284
18	0x401ea8b7	2.4790475
19	0x3f83683d	1.0266186
20	0x4051c09b	3.2773807
21	0x3ff83355	1.9390665
22	0x402fd3e3	2.7473075
23	0x40288dfc	2.633666
24	0x3f634b8a	0.8878714
25	0x3f8a90e3	1.0825466
26	0x3fd198c1	1.6374742
27	0x3f4bcb01	0.79606634
28	0x3ffb269d	1.9621159
29	0x40813ea4	4.0388966
30	0x3f6f5306	0.9348606
31	0x3fd3ffcc	1.6562438
32	0x405b0ece	3.4227786
33	0x3f76e494	0.9644253
34	0x402b6b9b	2.6784427
35	0x3f844733	1.0334228
36	0x40057c2b	2.0857036
37	0x40432af9	3.0494978
38	0x40056bc3	2.0847023
39	0x40572e11	3.3621867
40	0x40040f0c	2.0634184
41	0x4011ff25	2.2811978
42	0x404ab0d3	3.1670425
43	0x3ff0e0b3	1.8818573
44	0x400b67e0	2.178215
45	0x3fe58815	1.7932154
46	0x40274286	2.6134353
47	0x405ccd2f	3.4500234
48	0x40166dc0	2.3504486
49	0x3fc827a8	1.5637102
50	0x400a1e81	2.1581118
51	0x404e5884	3.2241526
52	0x3fcbc76f	1.5920237
53	0x3fb9cefd	1.4516293
54	0x3fc0b922	1.5056498
55	0x3f99b8c4	1.2009511
56	0x4015cadf	2.3405073
57	0x401fe674	2.4984407
58	0x4016d7e3	2.3569267
59	0x4014cad8	2.3248806
60	0x4094b178	4.6466637
61	0x40091e13	2.1424606
62	0x3fd590e4	1.6684842
63	0x3fec9005	1.8481451

conv4.weight f4 [64, 64, 3]
0	0xbe257ed1	-0.16161658
1	0x3ea58d6b	0.32334456
2	0x3dfce5b2	0.123484984
3	0xbe2e5a00	-0.1702652
4	0xbe28e07b	-0.16491883
5	0x3e6e886b	0.23294227
6	0x3d26e702	0.04074765
7	0x3b6eedec	0.003645773
8	0xbe82de9d	-0.25560465
9	0xbe51e5d5	-0.2049783
10	0x3e6d1f94	0.23156577
11	0x3e8a3611	0.26994374
12	0xbf130a22	-0.57437336
13	0xbe7aabfa	-0.24479666
14	0x3e40d170	0.18829894
15	0xbd09f57b	-0.033681374
16	0xbeaaeaba	-0.33382207
17	0x3e65568b	0.22396295
18	0xbdff48dc	-0.12465069
19	0xbe3c5a5e	-0.18393847
20	0x3ec78fd1	0.3897691
21	0xbf6ee07f	-0.93311304
22	0xbe85019d	-0.25977793
23	0x3e8f43f5	0.27981535
24	0x3da41b54	0.08013025
25	0xbe62916f	-0.22125791
26	0xbe47af6d	-0.19500513
27	0x3dd35d77	0.103205614
28	0x3f07d9eb	0.5306689
29	0xbc45ba16	-0.012068292
30	0x3f09f0a5	0.5388282
31	0xbded8a1a	-0.115986064
32	0xbd1df2e8	-0.03856173
33	0xbe493154	-0.19647723
34	0x3ea7dcf2	0.32785755
35	0x3e9a74c8	0.30167222
36	0x3d06b970	0.03289169
37	0x3d9cd8ab	0.07658514
38	0xbe796ace	-0.24357149
39	0x3e10febe	0.14159676
40	0x3e125ff3	0.14294414
41	0x3e1bea88	0.15226185
42	0xbed47857	-0.41498062
43	0xbe9e46d2	-0.30913407
44	0x3b6a5ba6	0.0035760193
45	0x3d959a71	0.07304848
46	0x3cd0cde5	0.025488803
47	0xbf14bde5	-0.58102256
48	0xbeb68179	-0.35645655
49	0x3cbd531c	0.023110919
50	0xbd75f304	-0.06004621
51	0x3ef870a1	0.4852343
52	0x3f2f1bcb	0.68401784
53	0x3d51c4d6	0.051213108
54	0xbeae7c0f	-0.34079024
55	0xbdace4fa	-0.08442111
56	0xbe33311d	-0.17499204
57	0xbdf807a4	-0.12110832
58	0xbecd5686	-0.40105075
59	0xbf1af289	-0.6052633
60	0xbe979963	-0.29609212
61	0xbed15642	-0.40886122
62	0xbe6d3006	-0.2316285
63	0xbe60cf6b	-0.21954124
64	0xbe709849	-0.23495592
65	0xbee2d126	-0.44300193
66	0x3d0bb185	0.034104843
67	0xbeb02edd	-0.34410754
68	0xbc3b7c8c	-0.0114432685
69	0x3c77af04	0.015117411
70	0x3de78d17	0.113062076
71	0xbd0bc56c	-0.034123823
72	0x3d9eae79	0.07748122
73	0xbe341f9e	-0.17590186
74	0xbd9cb83b	-0.07652327
75	0x3c3aec6b	0.0114089055
76	0xbed8e483	-0.4236184
77	0xbe8e2e64	-0.27769768
78	0x3ee62e57	0.4495723
79	0x3e87a718	0.2649467
80	0x3de9ed1f	0.114221804
81	0xbdf4a56b	-0.119456135
82	0xbe9bed92	-0.3045469
83	0xbe5d1a72	-0.2159212
84	0xbe633927	-0.2218977
85	0xbead0480	-0.33792496
86	0xbef96cb4	-0.48715746
87	0xbf276da9	-0.65401703
88	0xbd036b0e	-0.032084517
89	0x3e4a5425	0.19758661
90	0x3e759c67	0.23985444
91	0x3e949e53	0.29027042
92	0xbe2c7fa0	-0.1684556
93	0x3eb5d003	0.35510263
94	0x3dcc3530	0.09971082
95	0xbeac6fcf	-0.33679053
96	0xbe5d5e68	-0.21618044
97	0x3dc1e2f3	0.09467115
98	0x3bfe2848	0.0077562667
99	0x3e76d9a8	0.24106467
100	0x3e74525c	0.23859543
101	0xbdf49012	-0.11941542
102	0xbccaf87c	-0.02477669
103	0xbeaf1b9c	-0.34200752
104	0xbc89a401	-0.016801836
105	0x3e443f93	0.19164877
106	0x3e80b552	0.25138336
107	0xbe9234b2	-0.28555828
108	0xbdddb541	-0.10825587
109	0xbec0ac1d	-0.37631312
110	0xbcb27a8c	-0.02178695
111	0x3e949659	0.29020956
112	0x3cac6518	0.021044299
113	0xbe8f6d56	-0.28013104
114	0x3ee1ba06	0.44087237
115	0x3e7c082a	0.2461249
116	0x3deab5f8	0.11460489
117	0x3df258b7	0.11833327
118	0xbe34488b	-0.17605798
119	0x3e19c08e	0.1501486
120	0x3f30d247	0.6907086
121	0x3dd03c0c	0.10167703
122	0xbe86d4cc	-0.26334226
123	0xbea0113c	-0.3126315
124	0xbec984e7	-0.3935921
125	0x3d36b64a	0.04460744
126	0x3d53f144	0.05174376
127	0xbdd407f0	-0.103530765
128	0x3cb937dc	0.022609644
129	0xbeb87fa9	-0.36034897
130	0xbdd90c0f	-0.10598003
131	0x3dcc873f	0.09986734
132	0xbe219687	-0.15780078
133	0xbe6c027f	-0.23047827
134	0xbe8d6be3	-0.27621374
135	0xbe4202d8	-0.18946397
136	0x3e1b5920	0.15170717
137	0x3e89b51b	0.26895985
138	0x3ea11142	0.3145848
139	0xbec8f434	-0.39248812
140	0x3c3db467	0.011578656
141	0x3e4b6da2	0.1986604
142	0xbdba5e61	-0.091000326
143	0xbdf5e5d0	-0.12006724
144	0x3da39996	0.079882786
145	0xbe67dec8	-0.22643578
146	0x3cc60f55	0.024177233
147	0xbe20ba14	-0.15695983
148	0x3e4a676e	0.19766018
149	0xbe83cb7e	-0.2574119
150	0xbc97bd3c	-0.018522851
151	0x3eee81f0	0.4658351
152	0x3d940261	0.07227016
153	0xbd8c04ed	-0.06836877
154	0x3d950969	0.072771855
155	0xbe8502ec	-0.25978792
156	0xbf56292a	-0.8365656
157	0xbef18cdf	-0.4717779
158	0xbe6f72e3	-0.2338367
159	0xbeffc190	-0.49952364
160	0xbebd0247	-0.369158
161	0x3d8406a0	0.06446576
162	0x3f1926c7	0.59824795
163	0x3eeb7260	0.459857
164	0xbd1be124	-0.038056508
165	0x3d0dd90e	0.034630828
166	0x3cb11167	0.021614743
167	0xbdb8e568	-0.09028131
168	0x3e30e8b9	0.17276277
169	0x3d8d314e	0.0689417
170	0x3be1f539	0.006895688
171	0x3d095b6d	0.033534456
172	0x3f070250	0.52737904
173	0x3f06a284	0.5259173
174	0xbe84500a	-0.25842315
175	0xbbb5dbc8	-0.0055498816
176	0xbca45799	-0.020061301
177	0xbd140e9e	-0.036146753
178	0x3dcbdd0c	0.09954271
179	0xbe134c33	-0.14384536
180	0x3f23f105	0.6403964
181	0x3f0b052c	0.54304767
182	0xbe22ffc0	-0.15917873
183	0xbc34f830	-0.011045501
184	0x3e054ae0	0.13016844
185	0xbe1ef7a4	-0.15524155
186	0xbed686a5	-0.418996
187	0x3e8d8e92	0.27647835
188	0x3f10ad60	0.5651455
189	0x3e2fdf8f	0.17175125
190	0xbecf6da4	-0.40513337
191	0xbe96d959	-0.29462698
192	0xbebb6d1a	-0.36606675
193	0x3e5af7c5	0.21383579
194	0x3ec95342	0.39321333
195	0xbe1e6f3f	-0.15472125
196	0xbea5cfd5	-0.32385126
197	0xbdd82c9e	-0.10555385
198	0xbd422bce	-0.047405057
199	0x3f177c8f	0.59174436
200	0xbdc64269	-0.096806355
201	0x3d6b1f50	0.05740291
202	0xbebb0998	-0.36530757
203	0x3d06fb60	0.032954574
204	0x3eafc269	0.3432801
205	0x3dc6b4e4	0.09702471
206	0x3e829776	0.2550618
207	0x3b809cb4	0.0039249305
208	0x3e2a1786	0.16610536
209	0xbab3957e	-0.0013701168
210	0xbe5fb3a4	-0.21845871
211	0xbc06f394	-0.0082367845
212	0x3f0b7bda	0.5448586
213	0x3cc226db	0.023700168
214	0x3e803bc3	0.25045595
215	0x3e802763	0.2503005
216	0xbe837f3c	-0.2568301
217	0x3ea06bd7	0.31332275
218	0x3e632f7d	0.22186084
219	0xbe11aa57	-0.14225136
220	0x3f1f4fca	0.62231123
221	0x3f22e5b2	0.6363174
222	0xbf0d00d8	-0.5507941
223	0xbdabe57d	-0.08393381
224	0xbe30da3b	-0.17270748
225	0x3d8b62a9	0.06805927
226	0x3e31e95b	0.17374174
227	0xbe7e3e0b	-0.24828355
228	0x3e449898	0.19198835
229	0xbe5fcdb4	-0.21855813
230	0x3e1f9e5c	0.15587753
231	0xbe11c757	-0.14236198
232	0xbe494860	-0.19656515
233	0xbeea69c9	-0.45783833
234	0x3d5f2942	0.054482706
235	0x3ce217ff	0.027599333
236	0xbf1b951f	-0.60774416
237	0x3e999f2c	0.3000425
238	0xbdea3640	-0.114361286
239	0x3f562de8	0.836638
240	0xbd2cba1c	-0.042169675
241	0xbe6ac26e	-0.22925732
242	0xbeea43fb	-0.4575499
243	0xbd50dc05	-0.050991077
244	0xbebc33f7	-0.36758396
245	0xbe43e211	-0.19129206
246	0xbe193783	-0.14962582
247	0x3e1be0b8	0.15222442
248	0x3e77a6bf	0.24184702
249	0xbe275522	-0.1634107
250	0x3e5a7145	0.21332271
251	0x3f02accb	0.5104491
252	0xbe2e9f1c	-0.17052883
253	0x3d3386cf	0.043829735
254	0x3c903f27	0.017608238
255	0xbe1510f7	-0.14557253

conv4.bias f4 [64]
0	0xb7fe6b97	-3.032926e-05
1	0xb907fe8f	-0.00012969434
2	0xb83cb754	-4.499343e-05
3	0x38501f09	4.961997e-05
4	0xb695cd4d	-4.464446e-06
5	0x395931ff	0.00020713358
6	0xb78f923c	-1.7115024e-05
7	0x36c4b1fb	5.861975e-06
8	0xb862e405	-5.409496e-05
9	0xb79cc9d1	-1.8690627e-05
10	0x388574d8	6.363698e-05
11	0xb5329c8f	-6.653799e-07
12	0xb8090b3f	-3.267382e-05
13	0x378aafab	1.6532684e-05
14	0x33d6e944	1.0007582e-07
15	0x37d7c055	2.5719559e-05
16	0xb7a0ae54	-1.9154664e-05
17	0x36a4ad3a	4.907747e-06
18	0xb8c9e3cb	-9.6268566e-05
19	0x3736687c	1.08723725e-05
20	0x36e50fa5	6.826553e-06
21	0x37b06704	2.1028805e-05
22	0x37bb35e3	2.231723e-05
23	0xb7d34fe2	-2.5190358e-05
24	0x36898366	4.098215e-06
25	0x38a08b7b	7.655375e-05
26	0x3756268a	1.2764367e-05
27	0x378e292a	1.6946888e-05
28	0x373efd47	1.1383853e-05
29	0xb6d0875e	-6.214642e-06
30	0xb8a5967f	-7.895845e-05
31	0xb49a8eb6	-2.878857e-07
32	0x36dea3f2	6.6352013e-06
33	0x36a7ec78	5.0045164e-06
34	0x392455a6	0.00015672165
35	0x36ead796	6.998841e-06
36	0x383f8724	4.5663808e-05
37	0xb7e12915	-2.684122e-05
38	0xb790151c	-1.7175968e-05
39	0x3849c090	4.8101472e-05
40	0x38162e6e	3.5806028e-05
41	0x36bfae12	5.712508e-06
42	0x384a6a52	4.825957e-05
43	0x373edc3b	1.1376159e-05
44	0x388028be	6.1111044e-05
45	0xb93af8b3	-0.0001783099
46	0xb764deeb	-1.3641761e-05
47	0x3802e0e9	3.120388e-05
48	0xb7825f7d	-1.5541673e-05
49	0x3714f0e7	8.877577e-06
50	0x34cccaaa	3.8145419e-07
51	0xb828b802	-4.0225692e-05
52	0xb7277c27	-9.982882e-06
53	0xb7b081c4	-2.1041262e-05
54	0x378dd284	1.6906539e-05
55	0x36d803c2	6.437739e-06
56	0xb828fffb	-4.029272e-05
57	0x36db3169	6.5324607e-06
58	0x37934d86	1.7559865e-05
59	0xb719ff58	-9.1789625e-06
60	0x37c4a12c	2.3440072e-05
61	0xb938fc1b	-0.00017641524
62	0x3975883e	0.00023415775
63	0xb79c9cee	-1.8669725e-05

bn4.weight f4 [64]
0	0x3fa69788	1.3014994
1	0x3f94f1c6	1.1636283
2	0x3fbba8e1	1.4660913
3	0x3fa90c17	1.3206815
4	0x3fb1b897	1.3884457
5	0x3fabf4e0	1.3434105
6	0x3fb5af32	1.419409
7	0x3fcebb77	1.615096
8	0x3fc62eda	1.5483048
9	0x3fdb903f	1.7153395
10	0x3fb5624f	1.4170626
11	0x3fde1d25	1.7352644
12	0x3fa5f498	1.2965269
13	0x3fbff378	1.4996176
14	0x3fb55705	1.4167181
15	0x3fb6dcd4	1.4286141
16	0x3f801813	1.0007347
17	0x3fdf9f9c	1.7470584
18	0x3fae0082	1.3593905
19	0x3f9fbeb4	1.2480073
20	0x3fea7916	1.8318202
21	0x3fa6d9af	1.3035182
22	0x3fc3bf74	1.5292802
23	0x3fb2dd4b	1.3973783
24	0x3fa9fc1e	1.3280065
25	0x3f9696c4	1.176476
26	0x3f9e7a1e	1.2381017
27	0x3fa3c143	1.2793354
28	0x3fa979ee	1.3240335
29	0x3fd21ab3	1.6414398
30	0x3fccd729	1.6003162
31	0x3fdc2cbb	1.7201151
32	0x3fb6a025	1.4267622
33	0x3fcb710f	1.5893878
34	0x3fb1cfa6	1.3891494
35	0x3f963250	1.1734104
36	0x3f92d126	1.1470077
37	0x3fbd7bed	1.4803444
38	0x3f834781	1.0256196
39	0x3f9acfa8	1.2094622
40	0x3fbe2e73	1.4857925
41	0x3fb732dc	1.4312396
42	0x3f8596f4	1.0436692
43	0x3fce43f3	1.6114486
44	0x3f9615c7	1.1725396
45	0x3f88e9d6	1.0696361
46	0x3f93d0ef	1.1548136
47	0x3f916f3d	1.1362072
48	0x3fb9769b	1.448932
49	0x3f5eb67c	0.869972
50	0x3fb20cb4	1.3910127
51	0x3fc7ede1	1.561947
52	0x3fa407ce	1.2814882
53	0x3fb00cde	1.3753927
54	0x3f9bdf6d	1.2177559
55	0x3f955be9	1.1668674
56	0x3fc5815c	1.5430102
57	0x3fb81c7b	1.4383692
58	0x3fc54f21	1.5414773
59	0x3fa4abc2	1.2864916
60	0x3f994285	1.1973425
61	0x3fac4005	1.3457037
62	0x3f883435	1.0640932
63	0x3fca91c2	1.5825732

bn4.bias f4 [64]
0	0xbf314947	-0.6925244
1	0xbf059b1f	-0.5218982
2	0xbeb47ce6	-0.3525154
3	0xbeb267ec	-0.3484491
4	0xbefe6279	-0.49684504
5	0xbe9dff65	-0.30858913
6	0xbec55669	-0.38542488
7	0xbf6614da	-0.89875567
8	0xbf46e744	-0.77696633
9	0xbeaf86fe	-0.34282678
10	0xbf306589	-0.6890493
11	0x3e987a5b	0.2978085
12	0xbf7117c6	-0.941769
13	0xbf5fdee3	-0.87449473
14	0xbe73ad1b	-0.23796503
15	0xbf56b3d3	-0.8386814
16	0xbebd1be8	-0.36935353
17	0xbf464100	-0.7744293
18	0xbf50ba78	-0.8153453
19	0xbf3e83b8	-0.74419737
20	0xbf6efcb4	-0.93354344
21	0xbf1bdf69	-0.6088777
22	0xbf402147	-0.7505078
23	0xbf420733	-0.75792235
24	0x3d990f22	0.074735895
25	0x3e6141c9	0.21997751
26	0xbf3e85e2	-0.7442304
27	0x3d7a56f7	0.061118092
28	0xbed3331f	-0.4124994
29	0xbedfe159	-0.43726614
30	0xbd90f575	-0.07078067
31	0xbef1f196	-0.47254628
32	0xbf2cdc37	-0.6752352
33	0xbea53130	-0.3226409
34	0xbeb00460	-0.34378338
35	0xbf50a48e	-0.8150109
36	0xbeeddc23	-0.46457013
37	0xbef06f34	-0.4695984
38	0xbf56b346	-0.838673
39	0xbf7aa4a7	-0.9790749
40	0xbdd95eea	-0.106138065
41	0xbf84a278	-1.0362082
42	0xbebfb664	-0.3744384
43	0xbf799132	-0.97487175
44	0xbf6f4c01	-0.9347535
45	0xbf594dbc	-0.8488424
46	0x3a97347c	0.0011536027
47	0xbf3c715d	-0.7361048
48	0xbf6e5c1f	-0.93109316
49	0xbeb99be5	-0.3625175
50	0xbf1f55b4	-0.6224015
51	0xbf27a7a0	-0.6549015
52	0xbf34cd63	-0.70625895
53	0xbf2ecbf8	-0.6827998
54	0xbf520b65	-0.82048637
55	0xbf25d382	-0.6477586
56	0xbf26143e	-0.6487464
57	0xbf634a27	-0.8878502
58	0x3dd6eea0	0.10494733
59	0xbe67ca44	-0.22635752
60	0xbec47864	-0.383731
61	0xbf4d95a4	-0.8030646
62	0xbecea5e3	-0.40360937
63	0xbf47046e	-0.77741134

bn4.running_mean f4 [64]
0	0xbfd40bb8	-1.6566076
1	0x3f2f638c	0.6851127
2	0x3faa364d	1.3297821
3	0xbf000211	-0.50003153
4	0x3f84a996	1.0364254
5	0x3fdc0f6c	1.7192206
6	0x40447ec1	3.0702364
7	0xbf723cb9	-0.94623905
8	0x3f6d7a06	0.9276432
9	0x3f3298fc	0.69764686
10	0x3fec0cd6	1.8441417
11	0x3f9d76c8	1.2301874
12	0xbff9aa16	-1.9505031
13	0x3f732d6b	0.9499118
14	0x3ff3f6d9	1.9059707
15	0x3f55be88	0.8349385
16	0xbf930092	-1.1484549
17	0x3f87ccb0	1.0609341
18	0xbfe71498	-1.805316
19	0xbf311666	-0.691748
20	0xbef86347	-0.48513243
21	0x3f6cf864	0.92566514
22	0x3fab8196	1.3398921
23	0xbf47a9cb	-0.7799346
24	0x3f45ae6b	0.77219266
25	0x3ffc6035	1.971686
26	0xbfb3962a	-1.4030201
27	0x3fe480d9	1.7851821
28	0x3f8a6ce2	1.0814478
29	0x3fe70388	1.8047953
30	0x3ebc6425	0.36795154
31	0x3fe3ce2b	1.7797292
32	0x3b48985c	0.0030608391
33	0xbf99978a	-1.1999371
34	0x4058fd7a	3.390471
35	0xbf3da0a3	-0.7407324
36	0xbf11a21a	-0.5688797
37	0x3e2969b5	0.1654423
38	0xbf420750	-0.7579241
39	0xbeda353e	-0.42618746
40	0x40150d25	2.3289273
41	0x3e32c18a	0.17456642
42	0xbfc78eb4	-1.5590425
43	0x3fb377cd	1.4020935
44	0xbeb871f5	-0.36024442
45	0xbfe838ab	-1.8142294
46	0x3f473c3b	0.7782628
47	0xbf747312	-0.95488083
48	0x3fdb9bdc	1.715694
49	0xc01576d7	-2.3353784
50	0xbf0b4200	-0.54397583
51	0xbf253edb	-0.64549035
52	0x3f047297	0.5173735
53	0xbe29f047	-0.16595565
54	0x3ebde0a1	0.3708544
55	0xbd99c2bf	-0.07507848
56	0x3f37fc69	0.7186952
57	0xbf7fe729	-0.999621
58	0x4030fbb1	2.765362
59	0x400d8baf	2.2116506
60	0xbfbf0c5b	-1.4925646
61	0x3e993e7d	0.29930487
62	0xbf34a0b3	-0.7055771
63	0xbeec3411	-0.46133474
